research/odell-example/theta.npy (npy, 128128 bytes, 1 tensors)

array f8 [1000, 16]
000000 c7 8e ae f8 6b 8f 07 40 69 7e 3d 02 24 e7 8c c1
       2.9450301578779974 -60613760.280026264
000010 d0 42 57 b8 1b a9 73 41 53 e3 e3 e2 e0 90 95 40
       20615611.52130395 1380.2196155173776
000020 01 d7 34 92 f0 3d a5 c0 95 1c c5 54 bd bb 0f 40
       -2718.969865466352 3.9666697142270757
000030 1c 2e c3 13 08 c2 76 c1 f7 50 67 80 b6 2f 5f 41
       -23863425.235151395 8175322.006305925
000040 42 61 d1 13 c7 c7 48 40 8b f7 74 8a bf 98 76 c0
       49.560762860523496 -361.54676290216656
000050 f6 a7 84 65 71 a2 45 41 e9 15 b8 c0 aa 8b 51 41
       2835682.793110843 4599467.011235693
000060 f6 e2 d2 36 ce 1d 7e 40 85 7d cf 6a 06 4f 12 40
       481.86284525277676 4.577172917284206
000070 cd fd f4 d7 95 68 04 41 78 e7 82 32 4c 95 a2 3f
       167186.73044775278 0.03629530064195213
000080 68 bb a7 20 b3 6f 08 40 48 32 3f 35 4c bf 8c c1
       3.054540877455498 -60287366.65585762
000090 4d 0a 0d 8c 5b 32 73 41 11 1a 58 56 d4 28 91 40
       20129208.75318365 1098.2073606267843
0000a0 50 7a 6d e3 eb 8e 9e c0 df 5e 6b 21 ca 08 10 40
       -1955.7303597551254 4.0085835668357666
0000b0 de 03 db 09 0c 46 78 c1 30 c5 0e 82 58 60 5b 41
       -25452736.615970485 7176546.032151505
0000c0 c4 bb b9 47 e9 48 66 40 6f 35 78 1e 9d 01 53 c0
       178.27847658420626 -76.02521478404172
0000d0 22 f8 43 29 c2 af 42 41 4d ec 5d 50 18 58 50 41
       2449284.3223867575 4284513.255732608
0000e0 91 c0 4c 32 ef 15 81 40 b7 7c 7c d8 d0 56 12 40
       546.7417951580302 4.584781057928175
0000f0 59 92 63 a6 11 70 04 41 41 b2 f6 d2 2b 0a a0 3f
       167426.2062446054 0.031327600004577245
000100 c9 6e 48 e5 40 b0 07 40 94 32 de b1 75 5c 8f c1
       2.9610612786035273 -65769142.23349491
000110 8d d9 7a a5 33 bc 72 41 d9 06 0a 73 68 d3 9b 40
       19645242.34249263 1780.8520013395957
000120 6f 15 3e 7c 89 3d a3 c0 aa 7e 76 97 b0 c3 0e 40
       -2462.768526020161 3.845551665595697
000130 d6 a5 fa d2 1a 77 54 c1 fb 31 45 b2 91 69 5a 41
       -5364843.296548327 6923846.785473342
000140 42 57 9f bb 5d 44 a1 c0 5e 45 a2 a3 46 c6 75 c0
       -2210.1830720705047 -348.39224589717
000150 bc 93 96 a7 be 61 45 41 07 6a 77 51 f3 83 49 41
       2802557.309282748 3344358.6364567312
000160 5a 73 18 f1 41 db 8c 40 9d bd 9d 73 a1 5d 12 40
       923.4071981344416 4.591436201575019
000170 65 c6 7f 73 ef 19 04 41 f2 ef 65 0a 03 8a 90 3f
       164669.93139605518 0.016151473531394296
000180 76 26 cf b0 36 bb 08 40 91 16 81 6b 9c 73 92 c1
       3.0914129079072223 -77391642.87606265
000190 3b af 53 e8 72 a6 72 41 6b e5 e7 cf 16 5b 88 40
       19556142.520430785 779.386138736428
0001a0 0f 7a d7 5e 57 f9 a0 c0 79 6a 17 64 22 ed 10 40
       -2172.6706454597947 4.231576503686136
0001b0 60 2c e4 01 c0 7d 75 c1 ab 50 e7 07 76 c0 5a 41
       -22535168.11820638 7012824.123493354
0001c0 8f 05 88 b0 4c 18 84 40 d8 56 2c 30 43 8f 58 c0
       643.0374460818001 -98.23847584085468
0001d0 10 50 4c 61 aa 11 46 41 8f 85 f2 fb 7a d2 48 41
       2892628.76014138 3253493.9683386753
0001e0 c3 08 76 c2 70 9b 80 40 f4 4b 8d d8 c4 5d 12 40
       531.4300584050583 4.59157122003943
0001f0 c5 aa 19 89 fa 35 03 41 6b 37 37 51 09 f5 a0 3f
       157375.3169434873 0.033119479335808354
000200 8c c0 75 e5 48 75 06 40 83 14 1e 78 cc 5b 88 c1
       2.8072679449615574 -51083663.01468756
000210 20 5c 30 b1 a2 b8 73 41 c8 b0 71 a2 2c 22 a0 40
       20679211.074306607 2065.0871768501565
000220 71 e7 6a 17 f1 22 a9 c0 c4 ef a0 be cd aa 0d 40
       -3217.4708817870637 3.708400239263911
000230 e8 a6 ad 3e b6 1d 6d c1 b1 cd 07 ab 47 c9 5b 41
       -15265201.958697751 7283998.672351287
000240 9b 96 27 20 d9 c0 82 40 f7 56 c6 f3 87 77 9f c0
       600.1060183613621 -2013.8827658644275
000250 53 8a 7a 75 bb 04 46 41 e4 6a 76 db 4f 4a 50 41
       2886006.917802134 4270399.429102633
000260 59 c3 1b c3 83 02 64 40 1a 7d 2d b1 80 5a 12 40
       160.0785842458961 4.588381546403321
000270 5c 76 0d 6b a3 b3 03 41 00 91 21 4a 75 c9 9a 3f
       161396.42727177113 0.02615912690124933
000280 82 a4 bb cf 86 dd 09 40 22 60 87 83 da 98 92 c1
       3.233167288698099 -78001824.88220266
000290 fe 93 02 e3 29 52 73 41 bf 77 72 80 47 40 8f 40
       20259486.188129418 1000.0349129622263
0002a0 60 ad dc eb 98 45 95 c0 18 6a f6 f5 fa 50 10 40
       -1361.3993372422046 4.079082339444106
0002b0 59 47 e8 4f 48 4a 7d c1 49 dc 3b d0 da 02 5d 41
       -30712964.994208667 7605099.253653594
0002c0 11 e1 15 d1 82 2c 6e c0 6b b1 fd 5a f7 8a 22 c0
       -241.3909688403442 -9.27141842219199
0002d0 2f f6 61 fd 93 26 45 41 80 a5 fc b8 98 98 51 41
       2772263.9795520524 4612706.890420318
0002e0 3c af 06 c5 9b 98 8a 40 f8 96 36 06 ee 5b 12 40
       851.0760593912341 4.589775178033726
0002f0 70 c1 58 ca fb e3 02 41 c8 0f ba 2c 6f 04 a0 3f
       154751.4738021004 0.031283830842795235
000300 70 a4 73 b8 e3 a3 07 40 94 a9 1e c5 85 60 8d c1
       2.955024186162113 -61608120.63997188
000310 32 88 a8 41 c9 42 73 41 05 e5 b2 40 85 8a 88 40
       20196500.10364551 785.3150648094312
000320 a6 8b 9a ff 4b 8c a3 c0 fc 4a 7a 60 79 8a 10 40
       -2502.1484344764203 4.135228640998999
000330 17 be 1c 3f b5 08 78 c1 25 37 ea 97 9e 74 5c 41
       -25201491.94451722 7459450.373670374
000340 00 70 46 6f 8b a5 92 40 e6 ae 2b da ae 7a 7c c0
       1193.386166668497 -455.66768853248357
000350 d5 ab b6 0e e6 18 43 41 3c 25 9b 31 6f ae 4d 41
       2503116.114949683 3890398.3875471633
000360 94 de 72 a8 15 a4 6d 40 f5 bd fe f9 1c 59 12 40
       237.1276437991661 4.587024599240512
000370 dc 00 6a 35 a6 f4 03 41 e3 57 d5 65 94 29 a2 3f
       163476.7760810916 0.03547347777445944
000380 63 00 d3 e8 90 4f 08 40 42 3c 05 23 53 fa 8c c1
       3.0388506116287757 -60770916.37755634
000390 aa d3 2f ec d9 97 73 41 cf f3 58 bd 2a 7b 95 40
       20544926.761676468 1374.791737928277
0003a0 d1 05 ac 10 31 0b a1 c0 a6 3b e8 9d f7 c0 0f 40
       -2181.595830321989 3.9692222916123283
0003b0 72 a2 05 5b 88 10 79 c1 77 ce f3 b8 e2 9b 5a 41
       -26282117.688875623 6975370.889880768
0003c0 ad 99 1d 3d 0a 91 87 40 d3 27 71 13 a7 63 50 c0
       754.129999381306 -65.55707250643108
0003d0 85 20 86 11 35 d6 45 41 4b 5c 7b c0 d9 c6 51 41
       2862186.136905732 4660071.007529329
0003e0 f1 5b b7 59 5c 35 74 40 e8 8b 7e 17 de 5c 12 40
       323.3350464975802 4.5906909628856525
0003f0 7d 05 39 6e 47 30 03 41 c9 99 f5 07 53 38 96 3f
       157192.92881969726 0.021699235306550855
000400 2f b2 9c c7 b3 eb 07 40 31 74 aa 0e e0 c1 8a c1
       2.990088996381267 -56114177.83322943
000410 aa 3b 22 74 ae 40 73 41 2a de 34 21 8f 88 95 40
       20187879.25835768 1378.1397751103018
000420 91 34 7d 95 5a fa a1 c0 2d 73 f3 12 7c 7d 0f 40
       -2301.176921761195 3.9362718086762443
000430 e8 13 16 ee 49 b1 74 c1 1c 00 08 e6 0f 32 5b 41
       -21697694.880390078 7129151.594238307
000440 ec 93 bf 9c d3 40 73 c0 1c d1 df 49 7a 95 66 c0
       -308.05166315875135 -180.6711778041289
000450 8b 54 60 aa 28 9c 44 41 45 45 95 7f e8 2e 50 41
       2701393.331064766 4242337.993485753
000460 7d cc 05 18 9c 37 89 40 e6 a4 d9 3f 87 5a 12 40
       806.9512176945715 4.588406560572571
000470 37 28 ff 8b 8a fa 03 41 ee 0b d5 da 43 03 98 3f
       163665.31835776728 0.02344995520730813
000480 cf e2 be 84 b9 76 07 40 ca c8 ea 8a 7b 4f 8a c1
       2.932971036029222 -55177073.36464079
000490 b8 bc 3b 4a cb d9 72 41 fe e6 2a 50 51 3a 98 40
       19766452.639584273 1550.5794073775755
0004a0 b7 ee a2 21 42 4d a7 c0 f9 86 ea d3 60 b6 0f 40
       -2982.629162875786 3.964051871866897
0004b0 78 a8 23 c2 07 65 70 c1 f1 9a ff 63 df f9 59 41
       -17191036.133705586 6809469.562475906
0004c0 b2 be 21 6e 6d c7 7f 40 d4 4c 6a e3 75 1c 7d c0
       508.46421635800937 -465.7787813331936
0004d0 aa 88 f5 50 4b 0a 45 41 d8 f1 de 3b 57 b9 4b 41
       2757782.6324930983 3633838.4677412324
0004e0 72 94 b7 f5 d3 43 73 40 46 89 0b 3e 95 64 12 40
       308.2392480059708 4.598225564436069
0004f0 6b 87 56 47 1b d2 02 41 2e 78 6c 59 e9 eb 9a 3f
       154179.40983300967 0.02629055603312496
000500 b4 1b 97 e2 36 45 08 40 c5 3b d5 24 2e e9 8e c1
       3.0337960913052147 -64824772.60411791
000510 08 74 45 8c e9 d4 72 41 5f 43 fb e3 33 28 8d 40
       19746456.76695636 933.0253371839461
000520 86 a5 6a 8d b2 93 a2 c0 53 9d bf 7c 6a 7e 10 40
       -2377.8487351729445 4.123453091807579
000530 a4 b7 43 b2 de 5f 75 c1 ed 0a 73 ee 82 c1 5b 41
       -22412779.141532555 7276043.725771648
000540 3b 10 19 1b 60 07 88 40 f7 de 5e 05 bc 64 7a c0
       768.92192668515 -422.29590355929344
000550 1d 91 06 89 d5 a0 42 41 b5 a6 e2 9e da 13 4d 41
       2441643.0705129043 3811253.2412918457
000560 c6 d0 e6 70 1d 3c 72 40 d7 85 8e 7e 41 5b 12 40
       291.75718774950326 4.589117028664496
000570 25 42 98 03 9b 18 04 41 94 b3 a4 d0 22 1c a0 3f
       164627.37675525356 0.03146466061512068
000580 7d 88 7f a1 44 2d 07 40 4e 55 0c 20 ef cb 8e c1
       2.8971035592122107 -64585188.00602208
000590 27 00 16 78 f5 cb 72 41 2d ee ad f1 08 5b 8d 40
       19709783.50537124 939.3793672169028
0005a0 46 d4 f9 ab 53 6e a5 c0 0a 55 f3 87 95 24 10 40
       -2743.163421446955 4.0357266657131365
0005b0 b6 88 c4 28 01 19 6a c1 25 fe b6 2f 67 25 5c 41
       -13682697.27399097 7378332.745543991
0005c0 68 83 09 0d 47 26 57 40 16 6a 17 e4 a4 b6 85 c0
       92.59808660439523 -694.8305131749391
0005d0 73 42 1a b8 92 34 46 41 6e ab 38 dc a6 b3 49 41
       2910501.4383013784 3368781.7204794204
0005e0 ae 5f 0d da 2b 2a 8d 40 a2 e6 79 0e a9 61 12 40
       933.2714119953941 4.595371462049714
0005f0 9d 98 fb 61 bb 18 03 41 32 e9 15 b5 78 12 92 3f
       156439.4228431628 0.017648588230693103
000600 2c 12 9d 73 61 5a 09 40 63 dc 1e 59 0d 8d 92 c1
       3.1691311867055187 -77808470.28013758
000610 85 1d 7e 18 f3 f5 72 41 67 dc 86 c6 92 de 91 40
       19881777.53078987 1143.6433354446433
000620 f0 55 7c c5 57 41 9a c0 92 87 a0 3a a2 22 10 40
       -1680.3357142856075 4.033821979568431
000630 13 0b 61 33 7e ea 7a c1 6b 5d d9 d6 ba 0d 5d 41
       -28223459.2111922 7616235.3570169015
000640 c6 23 eb 32 35 b5 7d c0 80 d2 88 68 2f 26 54 c0
       -475.3254880128046 -80.59664357530164
000650 f6 21 ab db 7f 31 46 41 e6 57 7f b3 9c 6b 4e 41
       2908927.7161600543 3987257.4023237107
000660 3d 40 25 a4 f8 bf 91 40 06 04 b0 6e 9d 62 12 40
       1135.9928136654337 4.596303681843898
000670 bf 44 3f a2 72 36 02 41 74 5c b7 ea 45 08 93 3f
       149198.32922223766 0.018586246920531527
000680 d3 cb 23 c6 f4 ce 08 40 25 d5 ef 63 63 b9 91 c1
       3.1010528068231706 -74340568.98421152
000690 d5 ed 20 70 78 5a 73 41 dc fa ce 32 53 f8 88 40
       20293511.008039314 799.0406242533022
0006a0 94 b0 1b 84 dc 94 99 c0 15 a5 94 33 48 55 10 40
       -1637.2153477026486 4.083283239314615
0006b0 87 6d 7f e8 a1 a6 7a c1 f7 20 33 84 ea 04 5c 41
       -27945502.531110313 7345066.065620652
0006c0 28 6e c2 47 81 c4 92 40 fd c0 30 aa 8d 24 53 c0
       1201.126250303243 -76.57114653359527
0006d0 e5 07 a1 3e 72 67 45 41 e6 b5 9b 24 d8 bf 4b 41
       2805476.489289271 3637168.2860019086
0006e0 52 d2 00 32 de 1c 6c 40 ea 7d bd 7d 4e 5c 12 40
       224.9021234527632 4.590143170061745
0006f0 0f 41 62 23 ce dd 02 41 04 a2 42 19 0c 6e a0 3f
       154553.76727724864 0.03208959396699032
000700 2a 78 19 b4 62 77 07 40 a7 c3 7d 01 cb 55 89 c1
       2.93329373076178 -53131616.18640833
000710 ce 28 f3 76 b2 47 73 41 20 c3 2e 7c 17 a0 95 40
       20216615.434365086 1384.0229346567721
000720 5f a6 4c 0a bb 31 a7 c0 69 a5 9e 87 2b eb 0f 40
       -2968.86531295329 3.9898291201868017
000730 39 43 3b 75 a8 5c 76 c1 83 ae 1d 41 f7 bc 5a 41
       -23448199.326968405 7009245.017436626
000740 df d3 0a ed e0 d1 80 c0 82 0a 03 f1 d2 4c 8e c0
       -538.234827122298 -969.6029987561781
000750 7d 54 0f ca 98 89 44 41 1c 88 17 e0 2d 2d 4d 41
       2691889.5785928355 3824219.75071813
000760 65 d5 df d9 4a 82 91 40 02 ea d9 10 46 56 12 40
       1120.5730967496868 4.5842516549114425
000770 3f a1 70 e1 fc 94 04 41 7d 0c e0 92 d6 6c a0 3f
       168607.61007810567 0.032080369404888544
000780 94 9a ea 8f 88 60 07 40 91 2e 77 d5 57 c4 8c c1
       2.9221354716749577 -60328698.68319429
000790 59 23 21 8b 90 c1 72 41 53 91 ce d6 7b 6e 99 40
       19667208.69559035 1627.620936610813
0007a0 c6 51 ca 00 21 de a6 c0 20 aa f3 95 93 2d 0f 40
       -2927.064459154589 3.897254153727104
0007b0 48 10 6c 97 9e c7 67 c1 32 dd 2f 69 10 09 5b 41
       -12467444.731941357 7087169.643546389
0007c0 fc c1 3c 54 b4 64 77 40 16 6a ac 75 86 47 81 c0
       374.29402564748284 -552.9406541318774
0007d0 e4 de 50 1c e6 9e 43 41 39 d8 b8 bf aa 99 47 41
       2571724.221217977 3093333.49782851
0007e0 cd 06 8d 35 b4 3c 81 40 4b dc 53 47 6b 5e 12 40
       551.5879927652073 4.592206110471191
0007f0 31 2a 81 91 f9 30 04 41 7f ba b3 9d 1f d7 97 3f
       165407.19604714357 0.023281568527574677
